fruits/mon_modele.tflite (tflite, 148876 bytes, 10 tensors)

arith.constant f4 [32]
0.010397132 -0.01128624 -0.008648166 -0.007646839 -0.0062259296 -0.0088898735 0.017294846 -0.0068377545
-0.013099866 0.007151309 0.0059640477 0.01396447 0.018793952 -0.009904249 0.0 0.015592628
-0.0114869345 -0.023909599 0.012286465 -0.00012665699 0.0087727895 -0.0042854366 -0.0051099327 -0.00632039
0.004007242 -0.0021522949 -0.0062116873 -0.0067692874 0.015143797 0.0 0.012844498 0.0069634737
00000000: bb58 2a3c ece9 38bc 0ab1 0dbc 5692 fabb
00000010: e202 ccbb d5a6 11bc ecad 8d3c 3e0f e0bb
00000020: d2a0 56bc 8755 ea3b 0f6e c33b 3bcb 643c
00000030: c6f5 993c 6e45 22bc 0000 0000 3978 7f3c
00000040: b233 3cbc 10de c3bc 2b4d 493c 3acf 04b9
00000050: bfbb 0f3c d96c 8cbb 3971 a7bb 461b cfbb
00000060: 2f4f 833b 840d 0dbb 698b cbbb e6d0 ddbb
00000070: b01d 783c 0000 0000 bb71 523c da2d e43b

arith.constant1 f4 [32]
-0.008445713 0.023750223 -0.010606872 0.017411103 -0.011309759 0.02129344 0.02136382 -0.0068841893
-0.01739119 0.010016122 0.012772377 -0.017600624 -0.0058159954 -0.0307255 -0.017270591 0.020557124
0.007911015 -0.009837666 0.013840077 0.014894035 -0.0089468965 -0.019803947 0.013186539 0.015336832
-0.0046443474 0.0095120715 -0.014873116 -0.0056778416 -0.0039201877 0.00994646 -0.020140845 0.015632562
00000000: e35f 0abc d48f c23c 72c8 2dbc bba1 8e3c
00000010: 914c 39bc 956f ae3c 2e03 af3c c494 e1bb
00000020: f877 8ebc a91a 243c 3b43 513c 2f2f 90bc
00000030: 1b94 bebb 0bb4 fbbc 0e7b 8dbc 6a67 a83c
00000040: 349d 013c 292e 21bc 7ec1 623c 1c06 743c
00000050: 0196 12bc e33b a2bc 5a0c 583c 5647 7b3c
00000060: 9c2f 98bb 85d8 1b3c 5fae 73bc 300d babb
00000070: eb74 80bb 7af6 223c 6afe a4bc dc0f 803c

arith.constant2 f4 [32]
-0.0066717216 -0.018220369 -0.004591326 0.030678893 -0.0052491673 0.03773987 -0.009548662 0.035720106
0.030352097 -0.007561007 0.034483396 0.0054767164 -0.023692803 -0.016382877 0.005515334 0.011912465
-0.018315224 -0.019022528 -0.008952543 -0.005684178 0.023239136 -0.022814099 -0.017062603 0.015311088
0.006170245 0.00059778773 -0.015442634 0.025264269 -0.027784526 0.015131394 -0.025226802 -0.010290182
00000000: 759e dabb e242 95bc d672 96bb 4d52 fb3c
00000010: 3501 acbb 1f95 1a3d fe71 1cbc 3f4f 123d
00000020: f6a4 f83c 53c2 f7bb 763e 0d3d 0776 b33b
00000030: 6917 c2bc 6235 86bc fab9 b43b 802c 433c
00000040: cf09 96bc 22d5 9bbc b0ad 12bc 5742 babb
00000050: 0060 be3c a2e4 babc dfc6 8bbc 5cdb 7a3c
00000060: c42f ca3b dbb4 1c3a 1a03 7dbc 03f7 ce3c
00000070: 609c e3bc abe9 773c 70a8 cebc 2798 28bc

arith.constant3 f4 [32, 3, 3, 32]
-0.002983965 -0.061346006 0.12170542 0.12517262 -0.03142812 -0.037137818 0.05611324 -0.050675526
0.032868706 -0.082135215 -0.094484314 -0.04571805 0.047270164 -0.025864027 0.11753647 -0.010735052
0.051254533 0.043261457 0.03294142 -0.07783963 0.061119944 0.08894498 0.009742817 -0.0132042775
0.019894555 0.13353474 0.101374455 0.09906903 0.044973433 -0.10610149 0.013597228 0.093339786
-0.009377984 0.079332575 0.04716276 0.013483458 0.024928864 0.022009123 -0.11832108 0.04636377
0.01749134 -0.044099674 0.012827331 -0.045941766 -0.02893934 0.13137117 -0.058906835 0.09308092
-0.04032302 -0.022328129 0.05314778 -0.00949511 0.029975686 0.11646652 0.032854356 0.07459986
0.0050972835 0.11622366 -0.06530511 0.008273873 -0.08578689 0.019402683 0.07863788 -0.07794311
0.047188256 -0.10413559 -0.0141180735 0.027016204 0.076792076 0.058837414 0.012133953 0.039341643
-0.039895996 0.02091517 -0.0027545458 0.0041084834 -0.077227384 0.13617826 -0.056547154 -0.037421603
0.030387692 -0.021458898 -0.07569384 0.06912984 0.026491195 0.11464568 -0.020264164 0.059887007
-0.003799436 0.06708585 0.052555174 0.08479808 0.0075365175 -0.01661772 0.020441666 0.02869576
0.09695836 -0.09849318 0.0755529 0.11049554 -0.04809122 0.0883749 -0.074159525 -0.012205049
0.028596466 0.06398723 0.05280772 -0.07456533 0.11372127 0.010665145 -0.007268493 -0.16235772
0.06129503 -0.05597621 -0.091628894 0.08318174 0.08624464 0.013819481 0.10005997 0.119402744
-0.00799043 -0.0022587029 -0.0735792 -0.07620856 -0.026561085 -0.06916115 0.077841826 0.034872837
-0.039939944 -0.011304169 0.03966815 0.031469047 -0.04650614 -0.06049136 0.075478815 -0.03491973
0.09714032 0.031893015 -0.03976233 -0.08107722 -0.009850938 -0.05169898 -0.048493702 -0.026144873
-0.022994881 0.0008232018 -0.010605733 0.10993282 0.08950274 -0.0712947 -0.024745343 -0.10519221
0.0026655816 -0.06589729 0.046731323 -0.011548542 -0.07177636 0.05241436 -0.038850192 0.10334278
-0.030819181 0.09016561 -0.088571675 -4.8074107e-05 -0.020682018 0.042976085 -0.052345846 -0.046602536
-0.08610059 0.038843762 0.0141894445 -0.061879296 0.065207124 0.029974706 0.04509153 0.085354075
0.018875604 0.054902863 -0.07109626 0.030540336 -0.04981068 -0.023843367 -0.09482499 -0.0031776032
0.06584692 -0.0312901 0.017228033 -0.02080721 -0.011955233 0.002306781 -0.0630243 0.052082725
-0.09345865 -0.011928912 0.031847417 -0.025385547 0.09260153 0.09628075 -0.06892364 0.08360122
-0.05517587 -0.039227642 -0.041941155 0.0047724857 -0.029653357 0.03884226 -0.00043419204 -0.025755398
-0.07220021 -0.062126312 -0.02389888 0.14192523 -0.09150787 0.012526174 -0.028713714 0.07673376
-0.022673437 0.08804144 0.073523805 -0.07721771 0.070293196 0.04387079 0.010336382 -0.027195115
-0.059116703 -0.11869122 -0.0046825227 -0.018550713 0.05976209 0.037351202 0.0024620127 0.04492642
-0.06382483 -0.10128318 0.00720811 0.06879877 -0.06465356 0.03737263 0.01124341 0.034701668
0.045670453 0.07945471 -0.100756206 -0.04986098 0.0709326 -0.06979891 0.051726468 0.014351093
0.054377753 0.013918786 -0.10324174 -0.09112355 -0.08340437 0.0010277547 -0.077587046 0.057694748
00000000: a08e 43bb f345 7bbd b140 f93d 402d 003e
00000010: c6ba 00bd d31d 18bd ffd6 653d 2491 4fbd
00000020: 56a1 063d 8236 a8bd fe80 c1bd da42 3bbd
00000030: 5c9e 413d cce0 d3bc f6b6 f03d 12e2 2fbc
00000040: 46f0 513d ed32 313d 95ed 063d 626a 9fbd
00000050: e858 7a3d c928 b63d 56a0 1f3c c156 58bc
00000060: e8f9 a23c 55bd 083e 699d cf3d b4e4 ca3d
00000070: 1036 383d bd4b d9bd e8c6 5e3c ee28 bf3d
00000080: 1ea6 19bc 1e79 a23d bd2d 413d b9e9 5c3c
00000090: 9e37 cc3c 7a4c b43c 5352 f2bd f0e7 3d3d
000000a0: 004a 8f3c dca1 34bd ba29 523c 6f2d 3cbd
000000b0: 3212 edbc 2a86 063e 4b48 71bd 36a1 be3d
000000c0: c029 25bd 7be9 b6bc 7db1 593d 6191 1bbc
000000d0: 928f f53c 0086 ee3d 4a92 063d d0c7 983d
000000e0: 1d07 a73b ac06 ee3d afbe 85bd 238f 073c
000000f0: 09b1 afbd 60f2 9e3c e60c a13d a3a0 9fbd
00000100: 7948 413d 0a45 d5bd 7e4f 67bc 1651 dd3c
00000110: 2a45 9d3d 80ff 703d 7dcd 463c b424 213d
00000120: fc69 23bd 4a56 ab3c 9c85 34bb 75a0 863b
00000130: 6429 9ebd 5072 0b3e fd9d 67bd 6547 19bd
00000140: 9cef f83c 92ca afbc 5f05 9bbd f293 8d3d
00000150: 1004 d93c 5bcb ea3d 0801 a6bc 144c 753d
00000160: f5ff 78bb 4e64 893d 1844 573d 9eaa ad3d
00000170: e4f4 f63b e221 88bc 4875 a73c 5f13 eb3c
00000180: 1b92 c63d cbb6 c9bd 7bbb 9a3d 7c4b e23d
00000190: 4dfb 44bd e6fd b43d f3e0 97bd b0f7 47bc
000001a0: 2343 ea3c bd0b 833d e84c 583d b5b5 98bd
000001b0: b2e6 e83d dcbc 2e3c 8a2c eebb 1a41 26be
000001c0: 7f10 7b3d 4f47 65bd eea7 bbbd 305b aa3d
000001d0: 08a1 b03d 1b6b 623c 3eec cc3d 6d89 f43d
000001e0: 4bea 02bc bf06 14bb b1b0 96bd 3c13 9cbd
000001f0: a296 d9bc 5ca4 8dbd 896b 9f3d d2d6 0e3d
00000200: 1198 23bd 1f35 39bc 127b 223d b0e5 003d
00000210: 397d 3ebd cac5 77bd a394 9a3d fe07 0fbd
00000220: 81f1 c63d 40a2 023d d3dd 22bd d00b a6bd
00000230: d465 21bc 4fc2 53bd 55a1 46bd c62d d6bc
00000240: c35f bcbc 23cc 573a abc3 2dbc 7524 e13d
00000250: 364d b73d f502 92bd bfb6 cabc 036f d7bd
00000260: 0ab1 2e3b 29f5 86bd 5869 3f3d 1936 3dbc
00000270: 7cff 92bd 71b0 563d 6121 1fbd 61a5 d33d
00000280: 8278 fcbc bfa8 b83d 1165 b5bd 2ea3 49b8
00000290: 566d a9bc b107 303d 9968 56bd 4de2 3ebd
000002a0: 8255 b0bd a31a 1f3d d87a 683c 2575 7dbd
000002b0: 508b 853d 848d f53c e5b1 383d 1ece ae3d
000002c0: 03a1 9a3c d3e1 603d ea9a 91bd ba2f fa3c
000002d0: 4906 4cbd 2a53 c3bc 9b33 c2bd 563f 50bb
000002e0: c0da 863d 0c2a 00bd ce21 8d3c e273 aabc
000002f0: e2df 43bc 5d2d 173b e212 81bd b254 553d
00000300: 4067 bfbd 7c71 43bc 7072 023d 5af5 cfbc
00000310: dfa5 bd3d d82e c53d d627 8dbd 1e37 ab3d
00000320: 1800 62bd 2aad 20bd 7dca 2bbd 8362 9c3b
00000330: 99eb f2bc 1019 1f3d 45a4 e3b9 fcfc d2bc
00000340: b4dd 93bd 2978 7ebd 96c7 c3bc d954 113e
00000350: 7a68 bbbd 953a 4d3c 0639 ebbc 9726 9d3d
00000360: a5bd b9bc 124f b43d a693 963d 5224 9ebd
00000370: e1f5 8f3d dcb1 333d ee59 293c 4ac8 debc
00000380: 5b24 72bd 6214 f3bd d96f 99bb aaf7 97bc
00000390: 18c9 743d 93fd 183d b859 213b c404 383d
000003a0: 98b6 82bd 8e6d cfbd 0232 ec3b 5fe6 8c3d
000003b0: 1669 84bd 0b14 193d 4836 383c 5623 0e3d
000003c0: f110 3b3d 27b9 a23d 4559 cebd 073b 4cbd
000003d0: 1c45 913d bbf2 8ebd 22df 533d d920 6b3c
000003e0: 35bb 5e3d 9f0b 643c 6870 d3bd fc9e babd
000003f0: e9cf aabd bab5 863a f5e5 9ebd 5451 6c3d

arith.constant4 f4 [32, 3, 3, 32]
-0.03750315 0.027710365 0.024747556 -0.06921487 -0.092482366 -0.09042711 -0.021534929 0.054324534
-0.046530753 0.041987937 0.068732664 0.072516605 0.001415075 -0.0028584078 -0.02507149 -0.047894586
-0.09362346 0.06748484 -0.0826712 0.032033682 0.023053383 0.08826713 -0.07446583 0.07312609
-0.06310379 -0.09941749 -0.037555795 -0.062790506 -0.026513238 -0.08884971 0.014456647 -0.051388137
0.03621123 -0.041305527 0.10108061 -0.011553648 -0.109384485 0.026982307 -0.008776836 0.057215534
-0.036245737 0.060670372 0.08528342 0.01775646 -0.057894632 -0.052935936 -0.025204472 0.044053573
-0.067950875 0.06430549 0.00398145 -0.029348917 -0.015136354 0.0008774741 0.055636223 -0.031001188
0.08313909 -0.04925357 0.0869478 0.029978562 0.05156926 0.07296348 0.07418392 0.07620288
0.032268494 -0.0047661625 0.016131528 0.06500144 -0.055849113 0.05077633 -0.025318317 -0.10308284
-0.019082714 0.08318229 -0.07119951 -1.4586688e-05 -0.0073350794 0.07912904 0.041542042 -0.10593559
0.05439504 0.058088955 0.03952134 -0.05615015 0.046176687 -0.08938624 0.016945068 -0.0024879798
-0.06381254 -0.09041318 -0.09035238 -0.0405998 -0.087460406 0.08406954 0.0096830875 0.08472765
-0.013400978 -0.04994111 -0.08789747 0.06686604 -0.0065817516 -0.09856154 0.0058677047 0.055862203
-0.023264281 0.03727486 0.06744745 0.027834922 -0.050502483 -0.08995492 0.046182062 -0.059517268
-0.09163771 -0.03323763 0.08901319 -0.036830544 0.021965265 0.025359364 -0.015471628 0.017817572
0.06161179 -0.052045617 -0.0009808317 0.09495303 -0.067099534 -0.06392156 0.05131352 -0.05661335
-0.01647846 0.069499746 0.043728754 -0.052772984 -0.02518857 0.028623281 -0.10828408 0.059677906
-0.041069306 -0.0059947264 -0.020832593 -0.014107928 0.04876953 -0.07712801 -0.026690198 -0.052279234
-0.1082939 0.045925234 -0.07943612 0.019188277 0.07471647 0.025625266 -0.09174302 -0.028102122
-0.09322911 0.086544625 -0.08100353 -0.05948297 -0.0080930535 -0.07881948 -0.06557132 -0.08515277
-0.048998464 -0.026069915 -0.0815011 0.048746508 -0.013413128 0.042415693 0.056879308 -0.031737145
-0.058275156 -0.057194572 0.009441882 0.032205097 -0.007523125 0.045015678 0.03174183 0.07856376
0.024712099 0.00956587 0.007811269 -0.028227776 -0.010870409 0.0051853047 -0.07361582 -0.08288607
-0.0693301 0.0163608 -0.093141355 0.0670767 -0.087019965 0.05068423 0.06267684 0.040860973
-0.029931394 0.00093537854 0.09279284 0.09733598 -0.02344034 0.007920917 -0.0041247215 0.042625897
-0.04144026 0.099885724 -0.07969888 0.09199948 0.09254717 -0.08990932 -0.10602655 0.09280093
0.00837388 0.0071194326 0.028695483 0.039955184 0.103417635 -0.062789984 0.044980884 -0.06413625
0.013634622 0.070617065 -0.020814948 0.091971755 0.008147828 -0.0030330443 0.053668488 -0.031334534
-0.0580781 -0.015139266 0.04212349 0.047290426 0.0591009 -0.07247478 0.019012662 -0.004664906
-0.062421028 0.07160846 -0.08925866 -0.084916934 -0.052124605 -0.08316347 -0.006291052 -0.043392718
0.045443855 0.060989246 0.043994218 0.04793611 0.10396254 -0.107942395 -0.049691968 0.06505546
-0.105006546 -0.06898415 0.002845779 0.10736927 0.017010735 -0.050381962 0.034690008 -0.09808967
00000000: e79c 19bd d900 e33c 63bb ca3c 87c0 8dbd
00000010: 6567 bdbd d931 b9bd 056a b0bc 6783 5e3d
00000020: 0897 3ebd 8bfb 2b3d b6c3 8c3d 9683 943d
00000030: 0a7a b93a 2054 3bbb ba62 cdbc 1d2d 44bd
00000040: a8bd bfbd 7e35 8a3d 854f a9bd c035 033d
00000050: 73da bc3c 66c5 b43d 8b81 98bd 22c3 953d
00000060: 8f3c 81bd 669b cbbd 1bd4 19bd 4f98 80bd
00000070: 4a32 d9bc d6f6 b5bd 93db 6c3c 5e7c 52bd
00000080: 3a52 143d fc2f 29bd 5a03 cf3d 834b 3dbc
00000090: f904 e0bd 000a dd3c b8cc 0fbc d65a 6a3d
000000a0: 6976 14bd 7f81 783d 13a9 ae3d ff75 913c
000000b0: ec22 6dbd 5ad3 58bd 9c79 cebc 8571 343d
000000c0: d429 8bbd 99b2 833d d376 823b 246d f0bc
000000d0: 78fe 77bc 4a06 663a cfe2 633d 34f6 fdbc
000000e0: d444 aa3d 1dbe 49bd b011 b23d 9a95 f53c
000000f0: 4a3a 533d e16d 953d bded 973d 4110 9c3d
00000100: f82b 043d 782d 9cbb 4426 843c 7a1f 853d
00000110: 0ac2 64bd d7fa 4f3d 5c68 cfbc 191d d3bd
00000120: 5a53 9cbc 7a5b aa3d 0cd1 91bd 59b9 74b7
00000130: 1b5b f0bb 680e a23d fd27 2a3d c2f4 d8bd
00000140: 55cd 5e3d afee 6d3d 21e1 213d b3fd 65bd
00000150: c423 3d3d 2210 b7bd 62d0 8a3c 600d 23bb
00000160: 26b0 82bd 8c2a b9bd ab0a b9bd fa4b 26bd
00000170: 711e b3bd a72c ac3d d0a5 1e3c b185 ad3d
00000180: c78f 5bbc 0d8f 4cbd 9703 b4bd 10f1 883d
00000190: bcab d7bb a2da c9bd e045 c03b c4cf 643d
000001a0: bc94 bebc 86ad 183d e321 8a3d 1006 e43c
000001b0: b1db 4ebd 493a b8bd 6729 3d3d 61c8 73bd
000001c0: 8dac bbbd 2e24 08bd 8c4c b63d a0db 16bd
000001d0: 80f0 b33c 71be cf3c b67c 7dbc 28f6 913c
000001e0: a55c 7c3d c92d 55bd 408f 80ba bc76 c23d
000001f0: 7b6b 89bd 4fe9 82bd 202e 523d 66e3 67bd
00000200: d6fd 86bc e255 8e3d ec1c 333d 7c28 58bd
00000210: 4358 cebc 5f7b ea3c 0bc4 ddbd d270 743d
00000220: 4a38 28bd 696f c4bb 1da9 aabc f024 67bc
00000230: 8fc2 473d 4af5 9dbd 67a5 dabc c022 56bd
00000240: 31c9 ddbd 191c 3c3d 68af a2bd bc30 9d3c
00000250: f304 993d 14ec d13c c4e3 bbbd 6c36 e6bc
00000260: e7ee bebd 4f3e b13d 2ee5 a5bd 6aa4 73bd
00000270: ba98 04bc 1c6c a1bd 424a 86bd 9364 aebd
00000280: 9db2 48bd 9390 d5bc 0cea a6bd 6baa 473d
00000290: bdc2 5bbc 14bc 2d3d 47fa 683d cffe 01bd
000002a0: eeb1 6ebd db44 6abd 20b2 1a3c 7ee9 033d
000002b0: 8c84 f6bb 5c62 383d b903 023d 09e6 a03d
000002c0: 0771 ca3c 2bba 1c3c acf5 ff3b f03d e7bc
000002d0: cd19 32bc 7de9 a93b e4c3 96bd 2cc0 a9bd
000002e0: f1fc 8dbd 1607 863c e5c0 bebd 825f 893d
000002f0: 8637 b2bd 449a 4f3d b75c 803d d65d 273d
00000300: af32 f5bc 3134 753a 2c0a be3d 1658 c73d
00000310: f505 c0bc bcc6 013c ac28 87bb 7e98 2e3d
00000320: 43bd 29bd e390 cc3d 2b39 a3bd 396a bc3d
00000330: 5f89 bd3d 6122 b8bd 7324 d9bd 6a0e be3d
00000340: 9932 093c 214a e93b ca12 eb3c 0ca8 233d
00000350: a0cc d33d 0998 80bd e03d 383d de59 83bd
00000360: c063 5f3c ae9f 903d 1c84 aabc b05b bc3d
00000370: 787e 053c 0ac6 46bb 7dd3 5b3d a458 00bd
00000380: 4de3 6dbd af0a 78bc ae89 2c3d 9bb3 413d
00000390: c913 723d a86d 94bd 71c0 9b3c 11dc 98bb
000003a0: 31ad 7fbd 75a7 923d 3fcd b6bd eee8 adbd
000003b0: 9c80 55bd 9c51 aabd 2b25 cebb 90bc 31bd
000003c0: 5623 3a3d dccf 793d 4833 343d a858 443d
000003d0: 50ea d43d e710 ddbd ce89 4bbd cc3b 853d
000003e0: ac0d d7bd 9047 8dbd 4080 3a3b 6be4 db3d
000003f0: 195a 8b3c 515d 4ebd 1c17 0e3d 3de3 c8bd

arith.constant5 f4 [3, 128]
-0.037562605 -0.1377536 -0.1575278 0.044182047 0.18434733 0.1553938 -0.27550986 0.074383944
0.05620191 -0.076546766 -0.18829167 0.16423208 -0.016608775 -0.23109873 -0.11149739 0.004565544
0.058212064 -0.0027727783 -0.16729641 -0.22916122 -0.23903133 0.074473105 -0.10274256 -0.031737562
-0.08759785 0.061079018 0.07100878 -0.007748853 0.10742039 -0.023623044 0.121511236 -0.14438258
-0.028665189 -0.13421845 0.16639985 -0.13573796 0.1206727 0.09993119 -0.13969056 -0.14121522
-0.009979139 -0.17931843 -0.11107288 -0.077168785 0.1153291 0.033524767 -0.13059643 -0.049786545
0.17912367 -0.1327606 0.1470148 0.07572654 0.1895146 0.17390116 0.1547385 -0.22440025
-0.13470353 -0.008956914 0.20766596 0.01287774 0.23406003 0.11109124 0.26501226 0.19932698
-0.04562261 -0.051906522 0.041296437 -0.05699326 -0.13288948 0.010354607 0.036609452 -0.18056154
0.14489646 0.08316 0.14714849 0.19991602 0.09387498 -0.14835203 -0.15181373 0.010632596
0.10175146 0.021393588 -0.104335114 -0.14467733 0.2365603 -0.015584319 0.17447364 -0.14780484
0.14052813 0.17908466 0.124086015 -0.12567042 0.0626948 0.11323341 -0.05497003 0.05570163
-0.06604865 0.20215094 0.014368573 0.12324907 -0.16220519 0.06849386 0.23247063 -0.07161865
-0.15798578 0.116952844 0.059201058 -0.19438484 0.23419169 0.033443056 -0.13687909 0.19229558
0.15921564 0.116875984 0.13273388 -0.0653463 -0.0279013 -0.26029322 -0.113732226 -0.1679575
0.13355446 -0.07202338 -0.0990629 -0.19292691 -0.1243135 -0.22445543 0.13132122 -0.032181647
0.063584834 -0.014666267 0.019204898 -0.1533919 -0.19585606 -0.130208 0.10427811 0.24020733
-0.028136602 -0.1911034 0.23025124 0.1439552 -0.25802797 0.060646005 0.03924781 0.07198572
-0.0692588 0.010926783 -0.17029414 0.12873426 0.1724143 0.1783322 0.22823276 0.05662429
0.19764946 0.08982842 0.2068801 0.0990222 0.11676862 0.124898456 0.1635571 0.06441637
0.1246989 -0.19227365 -0.05663149 -0.10678627 -0.1603096 0.05658465 -0.15718125 0.025209084
-0.18647751 0.25001255 -0.1647938 0.15213716 0.04080726 0.2018107 0.20110819 0.19460073
-0.109477736 -0.13567992 -0.05656476 0.03636645 0.16830343 -0.08102084 0.21693358 -0.04739424
0.0042551924 0.006910034 -0.0036509607 0.15626027 -0.19773191 0.17504984 -0.11451291 0.15024629
0.15687813 0.15455967 -0.1268563 -0.19564122 0.1212578 0.088652365 0.07020331 0.13781084
-0.1011191 -0.115948424 -0.17347822 -0.2045436 0.103135176 0.15630306 0.07541139 -0.14436647
-0.15608865 -0.1422484 0.0035685105 -0.18731825 -0.121681646 0.08298428 -0.17819314 -0.008303532
-0.11411822 -0.04386002 0.06951261 0.021397516 -0.12196949 -0.12889944 0.14220339 0.10803746
0.06390731 -0.20049395 -0.06746803 0.10557869 0.09336929 0.15518041 -0.18221995 -0.19274098
-0.02414811 -0.22725938 -0.13757771 -0.14018801 0.1491293 -0.25229675 -0.071653515 -0.13439742
-0.010802835 -0.2433285 0.05911443 0.07970232 0.16955833 0.23111634 -0.09338867 0.062198494
0.14992093 0.06955615 0.06363685 0.22791079 0.13464701 0.025539061 0.01976099 0.14082187
00000000: 3fdb 19bd 480f 0dbe f84e 21be 3cf8 343d
00000010: 8cc5 3c3e 8d1f 1f3e a10f 8dbe 9c56 983d
00000020: f933 663d 8dc4 9cbd 88cf 40be 742c 283e
00000030: 200f 88bc 25a5 6cbe be58 e4bd 8f9a 953b
00000040: c66f 6e3d 80b7 35bb c04f 2bbe 3da9 6abe
00000050: a1c4 74be 5b85 983d b16a d2bd 3fff 01bd
00000060: 8066 b3bd fe2d 7a3d 0d6d 913d 17ea fdbb
00000070: 39ff db3d 1d85 c1bc e2da f83d 07d9 13be
00000080: 42d3 eabc 9070 09be b964 2a3e e4fe 0abe
00000090: 4023 f73d b9a8 cc3d 0b0b 0fbe b99a 10be
000000a0: 8b7f 23bc 409f 37be 2e7a e3bd ab0a 9ebd
000000b0: aa31 ec3d 4451 093d 12bb 05be faec 4bbd
000000c0: 326c 373e 65f2 07be 0c8b 163e 8416 9b3d
000000d0: 1e10 423e 2513 323e c573 1e3e 2ec9 65be
000000e0: b9ef 09be 05c0 12bc 63a6 543e 28fd 523c
000000f0: 6fad 6f3e ce83 e33d b0af 873e 5f1c 4c3e
00000100: c6de 3abd ef9b 54bd 7426 293d c471 69bd
00000110: 2e14 08be 5fa6 293c cbf3 153d 20e5 38be
00000120: bd5f 143e ca4f aa3d 18ae 163e c9b6 4c3e
00000130: 8741 c03d 98e9 17be 0f75 1bbe 5734 2e3c
00000140: 1263 d03d 9b41 af3c a6ad d5bd 4b26 14be
00000150: dd3c 723e 5f55 7fbc 38a9 323e 275a 17be
00000160: 9be6 0f3e f861 373e cf20 fe3d bfaf 00be
00000170: 2266 803d ebe6 e73d 4128 61bd 6427 643d
00000180: 8444 87bd a800 4f3e 2a6a 6b3c 026a fc3d
00000190: 1e19 26be 8246 8c3d c80c 6e3e ccac 92bd
000001a0: 06c7 21be f984 ef3d cf7c 723d d20c 47be
000001b0: f2cf 6f3e 96fb 083d 082a 0cbe 22e9 443e
000001c0: 6d09 233e ad5c ef3d 64eb 073e 48d4 85bd
000001d0: 4491 e4bc 2745 85be 71ec e8bd 0dfd 2bbe
000001e0: 80c2 083e fe80 93bd 7de1 cabd a28e 45be
000001f0: 1498 febd a5d7 65be 1279 063e e7d0 03bd
00000200: c438 823d c84a 70bc 9753 9d3c c412 1dbe
00000210: 7e8e 48be 3f55 05be c38f d53d e9f8 753e
00000220: bb7e e6bc 9cb0 43be fbc6 6b3e fe68 133e
00000230: 3e1c 84be f267 783d 50c2 203d 406d 933d
00000240: 8fd7 8dbd 4006 333c 9661 2ebe ead2 033e
00000250: 608d 303e b79c 363e d9b5 693e dfee 673d
00000260: 9f64 4a3e f6f7 b73d 60d8 533e 27cc ca3d
00000270: 6324 ef3d c3ca ff3d 837b 273e bbec 833d
00000280: 2362 ff3d 62e3 44be 6cf6 67bd c3b2 dabd
00000290: 3328 24be 4ec5 673d 1ff4 20be 4883 ce3c
000002a0: f6f3 3ebe a501 803e b5bf 28be d8c9 1b3e
000002b0: 8325 273d 77a7 4e3e 4eef 4d3e 6a45 473e
000002c0: dd35 e0bd adef 0abe 73b0 67bd fdf4 143d
000002d0: bc57 2c3e 41ee a5bd d623 5e3e 7620 42bd
000002e0: 246f 8b3b 916d e23b f544 6fbb b102 203e
000002f0: 3c7a 4abe 4440 333e bf85 eabd 2ada 193e
00000300: a9a4 203e e444 1e3e 9ee6 01be 2c56 48be
00000310: 0256 f83d 5f8f b53d c1c6 8f3d 491e 0d3e
00000320: 8817 cfbd 5e76 edbd 46a4 31be e173 51be
00000330: 8938 d33d e90d 203e 4971 9a3d ced4 13be
00000340: b4d5 1fbe 91a9 11be acdd 693b 5bd0 3fbe
00000350: 3a34 f9bd aaf3 a93d 4378 36be 8a0b 08bc
00000360: d0b6 e9bd 90a6 33bd a15c 8e3d d849 af3c
00000370: 24cb f9bd 37fe 03be c49d 113e be42 dd3d
00000380: d6e1 823d 494e 4dbe ae2c 8abd a439 d83d
00000390: 6638 bf3d 9de7 1e3e de97 3abe e45d 45be
000003a0: 42d2 c5bc afb6 68be 2ce1 0cbe 728d 0fbe
000003b0: 5ab5 183e 0a2d 81be 14bf 92bd 7a9f 09be
000003c0: 60fe 30bc 1b2b 79be f921 723d f83a a33d
000003d0: b3a0 2d3e c3a9 6c3e 8f42 bfbd d9c3 7e3d
000003e0: df84 193e 7473 8e3d 0954 823d 7261 693e
000003f0: e8e0 093e 4b37 d13c cde1 a13c 9c33 103e

arith.constant6 f4 [128, 128]
0.09677538 -0.011258172 -0.12959342 0.032911718 -0.087798744 0.028353348 -0.12125437 0.14832403
-0.10037868 0.16512579 0.06503525 -0.07706865 -0.14253986 -0.109836206 -0.090243526 0.027597234
0.017844545 0.10494124 -0.05504326 0.14567861 0.12757231 -0.09065722 -0.1261205 0.14995585
0.10236251 -0.087514766 -0.019168068 0.08217424 0.07146319 0.055964038 -0.020524621 0.12011311
0.13196412 0.03415815 -0.10367613 -0.11085602 0.060013033 -0.14787646 0.0013006926 0.006615648
0.14090836 0.13991706 0.14021319 0.16138028 0.14916487 0.12700266 0.14525731 -0.15133843
-0.040695775 0.0066548106 0.16231285 -0.07896325 0.0059936144 0.10962878 -0.120711446 0.030331345
-0.04008353 0.15580322 0.1459261 0.1165592 -0.030922167 -0.090765044 -0.15090488 -0.039118145
-0.06261649 0.06758929 -0.12931392 -0.02499775 0.079838924 0.058759987 -0.19494015 0.1603701
0.0031577281 -0.0071960175 0.066354714 0.013067492 0.08130294 -0.009543272 -0.029879756 -0.07841585
-0.05663565 -0.0022677204 0.2157794 -0.071091086 0.13778244 -0.036038585 -0.08358476 -0.124655075
-0.11481845 -0.13891391 0.15206726 -0.06250397 0.09374162 0.14235486 0.03116588 -0.014307669
-0.05970325 -0.106603 -0.10267153 -0.032481603 -0.09142686 -0.114520475 -0.08023775 -0.006276083
-0.05107939 0.10989452 0.109690286 -0.13062917 -0.119864546 0.12615487 0.005362138 0.062451527
-0.007165105 -0.063558914 0.06845241 0.089617684 -0.008943473 0.12469818 -0.058912594 -0.034966182
-0.13837434 -0.0141508095 0.11459151 0.0045908093 0.077232905 -0.049610987 -0.15465303 0.10552314
0.10052161 0.07896184 0.13206841 0.059371263 -0.0437795 -0.07956385 -0.14472295 0.03346452
0.115178555 0.06738479 0.06873062 0.10660487 -0.11926833 -0.0917038 -0.007820144 0.0948192
-0.07024452 0.00046342233 0.051421992 0.16258903 0.061647534 -0.0826022 -0.08574232 -0.023048481
-0.02371765 0.11125797 -0.03513965 0.029828735 -0.06596388 0.13073544 0.06855639 -0.04433421
0.11830764 -0.12986003 -0.14504044 0.09635714 0.15162499 0.076215684 0.10845307 0.035722498
0.08111889 0.1715761 -0.06753462 0.07957641 -0.1286328 0.14511524 -0.048217475 -0.036583003
0.17083588 0.083063714 -0.02079644 -0.085995056 -0.0010015505 0.15066023 -0.046763964 -0.022288822
-0.03155035 0.07022575 -0.13418826 0.057345077 0.038259406 -0.13232268 -0.001523058 -0.0025401139
0.006756774 0.05269779 0.0042203697 0.07492639 0.09530939 0.002672881 0.007422064 0.083160795
0.11781092 0.005840008 -0.05474331 -0.09997859 -0.0025062168 0.001463564 0.091483444 0.05267365
0.15643387 0.11438304 -0.11968731 -0.017705278 -0.05600523 -0.14325735 -0.029288307 -0.04696451
0.14323585 0.08246001 -0.09621646 0.11446113 -0.116227776 -0.100620255 -0.16119239 0.13137504
-0.20169365 -0.14981842 -0.060041383 0.08538695 0.07430721 -0.055439856 -0.019966824 0.082064025
-0.06892583 0.11028569 -0.12993552 -0.021287555 -0.12679158 0.0331939 -0.09648799 -0.07750905
-0.07304584 0.046987858 0.038969293 0.041787736 -0.10623522 -0.14145947 -0.025809318 0.07927475
-0.06682385 -0.08335975 -0.07392943 0.15381368 0.18359584 -0.07112116 -0.12641534 -0.11789346
00000000: 2c32 c63d 3274 38bc 23b4 04be 70ce 063d
00000010: d4cf b3bd 4845 e83c 3654 f8bd 41e2 173e
00000020: 5693 cdbd bc16 293e 3331 853d 2bd6 9dbd
00000030: f8f5 11be cef1 e0bd 99d1 b8bd 9813 e23c
00000040: b92e 923c 6feb d63d 0b75 61bd c62c 153e
00000050: 51a2 023e 7eaa b9bd bb25 01be 078e 193e
00000060: 70a3 d13d f13a b3bd 5a06 9dbc f84a a83d
00000070: 4b5b 923d 8c3a 653d 4023 a8bc ddfd f53d
00000080: 9a21 073e 6be9 0b3d 2754 d4bd 7b08 e3bd
00000090: 3ad0 753d ed6c 17be 007c aa3a 14c8 d83b
000000a0: 484a 103e 6b46 0f3e 0c94 0f3e df40 253e
000000b0: adbe 183e fc0c 023e 55be 143e 76f8 1abe
000000c0: 9db0 26bd 9910 da3b 5735 263e 7cb7 a1bd
000000d0: 1566 c43b 0e85 e03d 9037 f7bd 7179 f83c
000000e0: a12e 24bd e18a 1f3e a76d 153e 97b6 ee3d
000000f0: 7c50 fdbc 06e3 b9bd cf86 1abe 593a 20bd
00000100: 133d 80bd 416c 8a3d de6a 04be 15c8 ccbc
00000110: 9782 a33d 50ae 703d 649e 47be 0f38 243e
00000120: e3f1 4e3b 92cc ebbb fbe4 873d 0919 563c
00000130: 2882 a63d 625b 1cbc 64c6 f4bc 7d98 a0bd
00000140: c9fa 67bd 099e 14bb 46f5 5c3e 3498 91bd
00000150: d716 0d3e 329d 13bd 7d2e abbd 294b ffbd
00000160: ef25 ebbd 733f 0ebe 85b7 1b3e 1502 80bd
00000170: 9bfb bf3d 79c5 113e 964f ff3c b76a 6abc
00000180: 658b 74bd ac52 dabd 7345 d2bd 6e0b 05bd
00000190: 013e bbbd b689 eabd b153 a4bd 9aa7 cdbb
000001a0: 9f38 51bd 6110 e13d 4da5 e03d a7c3 05be
000001b0: 8b7b f5bd be2e 013e e0b4 af3b 2ccd 7f3d
000001c0: 42c9 eabb 2d2b 82bd c730 8c3d 7a89 b73d
000001d0: a587 12bc c261 ff3d 554e 71bd b338 0fbd
000001e0: 01b2 0dbe ccd8 67bc f4ae ea3d 806e 963b
000001f0: 492c 9e3d e434 4bbd 5d5d 1ebe 841c d83d
00000200: 46de cd3d bfb6 a13d f13c 073e 482f 733d
00000210: 2252 33bd 5ff2 a2bd 4132 14be 1812 093d
00000220: bce2 eb3d 0901 8a3d a4c2 8c3d a753 da3d
00000230: f442 f4bd 34cf bbbd 1020 00bc 9230 c23d
00000240: 5cdc 8fbd 7ef7 f239 de9f 523d bd7d 263e
00000250: 2082 7c3d 582b a9bd ab99 afbd 2bd0 bcbc
00000260: 844b c2bc 38db e33d 98ee 0fbd 645b f43c
00000270: 1218 87bd 83df 053e 4b67 8c3d ca97 35bd
00000280: 474b f23d 07fa 04be 7b85 14be e456 c53d
00000290: 9543 1b3e f816 9c3d a51c de3d c151 123d
000002a0: a921 a63d a5b1 2f3e 974f 8abd f5f8 a23d
000002b0: 51b8 03be 1799 143e b07f 45bd 0fd8 15bd
000002c0: 9aef 2e3e 4f1d aa3d 4c5d aabc 2d1e b0bd
000002d0: 7546 83ba ad46 1a3e 928b 3fbd 0c97 b6bc
000002e0: f13a 01bd 85d2 8f3d a668 09be ace2 6a3d
000002f0: e5b5 1c3d 997f 07be 59a1 c7ba 0a78 26bb
00000300: ee67 dd3b a3d9 573d 074b 8a3b 0273 993d
00000310: 9231 c33d 802b 2f3b c934 f33b 3550 aa3d
00000320: da46 f13d 8a5d bf3b 853a 60bd 93c1 ccbd
00000330: 573f 24bb 0fd5 bf3a ac5b bb3d 53c0 573d
00000340: 3330 203e a841 ea3d 9f1e f5bd a90a 91bc
00000350: bd65 65bd 0eb2 12be 08ee efbc dc5d 40bd
00000360: 6bac 123e cbe0 a83d 230d c5bd 996a ea3d
00000370: d408 eebd fe11 cebd 9e0f 25be 2e87 063e
00000380: c888 4ebe 006a 19be f4ed 75bd 5adf ae3d
00000390: 612e 983d e714 63bd 7791 a3bc 2f11 a83d
000003a0: fc28 8dbd 77dd e13d d10d 05be 3d63 aebc
000003b0: a7d5 01be 54f6 073d 7f9b c5bd 11bd 9ebd
000003c0: 0f99 95bd 5776 403d 449e 1f3d 9e29 2b3d
000003d0: da91 d9bd c0da 10be 106e d3bc cd5a a23d
000003e0: f1da 88bd 84b8 aabd 5068 97bd 5581 1d3e
000003f0: 8c00 3c3e f9a7 91bd 0673 01be 2072 f1bd

arith.constant7 f4 [128]
0.010418167 -0.0057486184 -0.0023712656 0.0 0.0220986 0.013681769 0.006545797 0.00040762848
-0.005985234 0.0018223776 -0.0052720145 0.023689244 0.02353631 0.0014892234 -0.0022049493 -0.0053082113
0.011420934 0.0 0.007516409 -0.0012777069 0.004694507 -0.0067495974 -0.0028686265 -0.0052389516
0.0 -0.004405482 -0.0045682956 -0.012110178 -0.009182158 -0.0058873245 -0.0037300743 -0.00691501
0.0049918615 0.0 0.0 -0.006007969 0.0154504515 -0.0022021364 0.0034145142 0.0
0.008104531 -0.0022855604 -0.01044206 0.0009923821 0.010792898 0.004744636 0.007432204 -0.0050959988
-0.005556386 -0.008544905 0.0012525866 0.013101709 -0.008018694 -0.010159447 0.0007590928 0.0039809435
-0.007658413 -0.010574662 -0.011674841 -0.007498326 0.019247258 -0.023478474 0.009968616 -0.016571961
0.0072049955 -0.007496904 0.0062236274 0.0 0.0 -0.003609532 -0.0018263044 0.008111569
0.013671 -0.0064505846 0.008426844 0.00807829 0.0049794954 -0.009166194 4.3388132e-05 0.0062870863
0.0 -0.008224215 0.011064102 0.009072715 0.015970804 -0.014392482 0.011438637 -0.010406988
0.0 -0.01203233 9.049248e-05 -0.0066621625 0.010922364 0.008920718 0.015065846 0.0
0.006863106 -0.0051107844 -0.008920889 -0.008597503 -0.008021355 0.0 0.010242678 0.0054422594
-0.008081646 0.011243469 0.01953685 -0.007048092 -0.0015342355 0.011215004 -0.012965996 0.009398115
0.0 0.018084913 -0.006965182 -0.0034983738 -0.007912646 0.007817788 0.0003220434 -0.005202933
-0.0012969895 0.0015812818 0.0036623282 0.001377129 -0.019096922 -0.008822703 -0.010126409 -0.00943739
00000000: f6b0 2a3c e85e bcbb 3c67 1bbb 0000 0000
00000010: 2008 b53c 8029 603c 207e d63b f8b6 d539
00000020: c81f c4bb d8dc ee3a ddc0 acbb f20f c23c
00000030: 38cf c03c 0c32 c33a e980 10bb 81f0 adbb
00000040: df1e 3b3c 0000 0000 354c f63b bb78 a7ba
00000050: 61d4 993b ba2b ddbb 91ff 3bbb 83ab abbb
00000060: 0000 0000 dd5b 90bb a4b1 95bb c569 46bc
00000070: c370 16bc 75ea c0bb 4374 74bb 4f97 e2bb
00000080: c592 a33b 0000 0000 0000 0000 7fde c4bb
00000090: e423 7d3c b851 10bb 0bc6 5f3b 0000 0000
000000a0: dec8 043c 57c9 15bb 2d15 2bbc d112 823a
000000b0: b2d4 303c e478 9b3b d989 f33b 56fc a6bb
000000c0: 5812 b6bb eeff 0bbc d52d a43a 8da8 563c
000000d0: d760 03bc cf73 26bc dbfd 463a 9372 823b
000000e0: 6df3 fabb 5941 2dbc d547 3fbc 84b4 f5bb
000000f0: 6dac 9d3c ee55 c0bc 6853 233c ecc1 87bc
00000100: e217 ec3b 97a8 f5bb 92ef cb3b 0000 0000
00000110: 0000 0000 e68d 6cbb 9b60 efba 63e6 043c
00000120: 54fc 5f3c 6d5f d3bb bf10 0a3c ce5a 043c
00000130: 092b a33b ce2d 16bc a7fb 3538 e703 ce3b
00000140: 0000 0000 dcbe 06bc 3546 353c baa5 143c
00000150: 34d5 823c 72ce 6bbc 1f69 3b3c 1282 2abc
00000160: 0000 0000 4023 45bc c8c6 bd38 454e dabb
00000170: b7f3 323c 3428 123c bdd6 763c 0000 0000
00000180: e8e3 e03b 5e78 a7bb ec28 12bc 8bdc 0cbc
00000190: 006c 03bc 0000 0000 e8d0 273c fb54 b23b
000001a0: e168 04bc 8736 383c be0b a03c aef3 e6bb
000001b0: 6718 c9ba 23bf 373c 546f 54bc 8dfa 193c
000001c0: 0000 0000 d026 943c 2e3c e4bb f944 65bb
000001d0: 0ba4 01bc 2e16 003c efd7 a839 5e7d aabb
000001e0: bfff a9ba 0343 cf3a ac03 703b c880 b43a
000001f0: 2671 9cbc 198d 10bc 3de9 25bc 489f 1abc

arith.constant8 f4 [3]
0.0056046406 -0.008722102 0.0027721256
00000000: 22a7 b73b 26e7 0ebc 8dac 353b

sequential_1/conv2d_1/Relu;sequential_1/conv2d_1/add;sequential_1/conv2d_1/convolution; f4 [32, 3, 3, 3]
-0.00025120066 -0.00011808639 -0.0004817813 -0.0003140546 -0.00053227897 -0.0004361457 -0.00054299727 0.00012650069
0.000100526835 0.00020655533 0.0004527088 0.0002516444 9.307735e-05 0.00048625752 0.000115608884 0.00045982865
0.00021263276 0.00026646646 -0.0005567232 -0.0004951175 0.0004146416 -0.00013406278 9.795492e-05 -2.6810609e-05
-0.00029907888 0.00015856471 -0.00040196677 -0.00040961266 0.00020742223 0.00040968996 7.104939e-05 0.00017620853
-0.00021841683 -0.00055454194 -0.000365526 0.00035136 0.00023970078 -0.00033247742 0.0005776156 0.00024613872
0.0004992565 3.5427558e-05 7.166879e-05 3.6264075e-05 0.00026732596 0.00048256156 -0.00028044407 4.8595055e-05
-0.00028292218 0.0005057392 0.00057545677 -0.00047358795 0.00012506863 0.00018343772 3.4597979e-06 -0.00026632857
-0.00029840344 0.00016680917 -0.0003886679 -0.00029503505 -0.00034020186 0.00030507927 0.0003384383 1.2703073e-06
-0.00019243183 -0.00019299454 0.00019443783 -0.00031460443 -0.00050979626 8.5954445e-05 0.00022088297 -0.00030118585
0.00039495056 -0.00032819324 0.00047058717 -0.0004008316 -0.0003312518 0.00048474307 -0.00048333054 0.00019687891
-0.00041233812 0.0005881537 0.00014993256 2.0564037e-05 -0.0001551595 2.454185e-05 -0.00026240567 -0.00046112336
-0.00026993788 0.0005047488 7.655674e-05 -0.00020485048 0.00052118866 -0.00014747155 0.00013975502 0.0002916701
-8.658508e-05 -0.00036159574 -0.00019170328 -0.000492628 0.00021226711 -0.000530928 -6.584113e-05 -0.00036955546
0.00031122315 -3.300726e-05 -0.00015372671 0.00023253528 -0.000108306725 0.00021730362 5.951354e-07 0.000598484
-0.00024408153 -6.8563626e-05 0.0003312894 -0.00026983747 4.584278e-05 -0.00027880925 0.00021448628 9.701866e-05
-0.000118363576 -0.00025454134 -0.00047347738 0.0005842521 0.00025428136 -0.0005913396 -8.071444e-05 -1.3207843e-05
1.3176981e-05 0.00018492814 -0.00023974193 -9.593456e-05 0.00054623495 0.00042712793 0.00019722637 -0.00011074949
-0.00017046886 -0.0003027834 -9.988901e-05 -4.0731436e-05 0.00025559496 9.464728e-05 -0.00020559068 0.00064708304
4.4250046e-05 -0.00020815825 0.00063173444 -0.00017970333 -0.00031564542 -2.7732693e-05 -2.1507802e-05 -0.0001327937
-0.00012321296 -0.00028664156 -0.00037583185 -0.0002378246 -0.0001022275 0.00013892987 0.0007068337 0.00067888014
0.00029937393 0.0006475161 -0.0004788582 0.00056665123 0.0005543154 -3.7318518e-05 -0.00014109378 -0.00019797718
0.00010621077 1.7346776e-05 0.00056620524 3.2705648e-05 0.0005122915 -8.28423e-05 0.00032960242 1.6026095e-05
0.0005800509 -0.00036065478 0.000102175974 0.00032981203 -0.0002093532 -0.0004317328 0.00054093136 -0.00011730171
0.0004891858 0.00059711054 -0.00021793436 -0.0002589777 0.0002784643 -0.00035469962 0.00021069868 -0.00020072835
-0.00036886297 -0.00030770287 -6.9275566e-06 0.0005177702 -0.00033967075 -0.0003212183 0.00063170964 -0.0005431397
0.00038352012 0.00028769198 -0.0005329953 0.0003039099 0.00046321226 -0.0005512587 0.0002654862 0.00013832716
-0.0004679032 -1.9028173e-05 0.0004998197 -0.00029203182 0.00011694882 0.000224147 -0.0003423978 0.0004261037
0.00055595953 -0.0003623062 0.0003614291 -0.00019387518 -0.00041087202 7.326366e-05 -0.0003055043 -6.203467e-05
0.0003103576 -0.00045104473 5.6184726e-05 -0.00036464876 -0.0003234546 0.00045402945 0.00041730131 -0.00036595404
0.00051901944 -3.1449094e-05 -0.00047217135 0.00010412003 -9.55315e-05 -0.00023546044 -0.00044966134 -0.00013607956
5.3419102e-05 0.00029010064 2.6317435e-05 -2.726938e-05 -0.00014635148 0.00026840923 -0.00029821595 -0.00031341144
0.00032626645 -0.000378101 0.0003621932 0.00038645786 -0.00010315441 -0.0001268129 0.0005418631 -0.00054229575
00000000: 95b3 83b9 26a5 f7b8 9797 fcb9 b2a7 a4b9
00000010: a388 0bba 7caa e4b9 ee57 0eba 45a5 0439
00000020: efd1 d238 c696 5839 8c59 ed39 24ef 8339
00000030: 8632 c338 61f0 fe39 0c73 f238 2815 f139
00000040: 2cf6 5e39 86b4 8b39 10f1 11ba c6ca 01ba
00000050: 4164 d939 3493 0cb9 266d cd38 58e7 e0b7
00000060: b0cd 9cb9 6444 2639 11bf d2b9 48c1 d6b9
00000070: 7b7f 5939 a8cb d639 5a00 9538 9ec4 3839
00000080: d206 65b9 ae5e 11ba 12a4 bfb9 be36 b839
00000090: 3058 7b39 5d50 aeb9 206b 173a 2e0c 8139
000000a0: 89e0 023a 0d98 1438 e34c 9638 411a 1838
000000b0: e227 8c39 5100 fd39 9108 93b9 8bd2 4b38
000000c0: 2c55 94b9 9593 043a 40da 163a e64b f8b9
000000d0: db24 0339 3059 4039 e02e 6836 04a2 8bb9
000000e0: 0873 9cb9 7fe9 2e39 1fc6 cbb9 efae 9ab9
000000f0: 1f5d b2b9 0cf3 9f39 6b70 b139 6d7f aa35
00000100: 87c7 49b9 945e 4ab9 02e2 4b39 7ef1 a4b9
00000110: d9a3 05ba 7142 b438 d29c 6739 7be8 9db9
00000120: 5e11 cf39 5a11 acb9 24b9 f639 b526 d2b9
00000130: ddab adb9 1d25 fe39 8767 fdb9 4871 4e39
00000140: 162f d8b9 542e 1a3a 3737 1d39 ef80 ac37
00000150: 50b2 22b9 39df cd37 7e93 89b9 eec2 f1b9
00000160: 7386 8db9 1e51 043a 168d a038 22cd 56b9
00000170: 61a0 083a 98a2 1ab9 348b 1239 4ceb 9839
00000180: 0395 b5b8 8f94 bdb9 f503 49b9 b523 01ba
00000190: 0594 5e39 fa2d 0bba 3014 8ab8 e5c0 c1b9
000001a0: aa2b a339 4771 0ab8 b331 21b9 b7d4 7339
000001b0: bb22 e3b8 ffdb 6339 65c1 1f35 95e3 1c3a
000001c0: 23f0 7fb9 d1c9 8fb8 e9b0 ad39 f978 8db9
000001d0: 4f47 4038 252d 92b9 b9e7 6039 7f76 cb38
000001e0: f639 f8b8 f673 85b9 0f3d f8b9 7f28 193a
000001f0: 1151 8539 2104 1bba 3c45 a9b8 4197 5db7
00000200: b412 5d37 45e9 4139 3c63 7bb9 7a30 c9b8
00000210: 3531 0f3a 24f0 df39 8dce 4e39 2e42 e8b8
00000220: e3bf 32b9 e6be 9eb9 817b d1b8 0cd7 2ab8
00000230: 6001 8639 5f7d c638 d493 57b9 02a1 293a
00000240: 2099 3938 0e45 5ab9 fb9a 253a bf6e 3cb9
00000250: 367d a5b9 81a3 e8b7 a76b b4b7 8a3e 0bb9
00000260: ba32 01b9 6148 96b9 4c0b c5b9 8e60 79b9
00000270: f962 d6b8 b4ad 1139 cf4a 393a e0f6 313a
00000280: 4af5 9c39 12be 293a 420f fbb9 528b 143a
00000290: 7a4f 113a 7486 1cb8 93f2 13b9 1898 4fb9
000002a0: 79bd de38 eb83 9137 646d 143a 6c2d 0938
000002b0: 4d4b 063a 9fbb adb8 7dce ac39 c76f 8637
000002c0: 8f0e 183a 4416 bdb9 4f47 d638 9fea ac39
000002d0: d285 5bb9 325a e2b9 4acd 0d3a e0ff f5b8
000002e0: b43c 003a 6987 1c3a 4f85 64b9 66c7 87b9
000002f0: d8fe 9139 faf6 b9b9 ffee 5c39 9b7a 52b9
00000300: f363 c1b9 2e53 a1b9 4273 e8b6 f8ba 073a
00000310: d615 b2b9 3169 a8b9 5199 253a 7d61 0eba
00000320: 3313 c939 5dd5 9639 b6b8 0bba 1956 9f39
00000330: 4cdb f239 5882 10ba f430 8b39 ea0b 1139
00000340: e850 f5b9 b19e 9fb7 5506 033a d91b 99b9
00000350: 6b42 f538 0109 6b39 db83 b3b9 ac66 df39
00000360: d0bd 113a eaf3 bdb9 317e bd39 f94a 4bb9
00000370: 4f6a d7b9 21a5 9938 182c a0b9 9c18 82b8
00000380: 7eb7 a239 337a ecb9 e4a7 6b38 542e bfb9
00000390: 5795 a9b9 cd0a ee39 3cc9 da39 85dd bfb9
000003a0: ce0e 083a 35e8 03b8 c48d f7b9 045b da38
000003b0: 1558 c8b8 eee5 76b9 86c0 ebb9 94b0 0eb9
000003c0: 530e 6038 a618 9839 43c4 dc37 8cc0 e4b7
000003d0: ed75 19b9 47b9 8c39 de59 9cb9 5f51 a4b9
000003e0: be0e ab39 db3b c6b9 c0e4 bd39 7f9d ca39
000003f0: 9a54 d8b8 14f9 04b9 d10b 0e3a da28 0eba
